models/model.pt (torch_old, 8662 bytes, 1 tensors)

weight f4 [4, 515]
0	0xb84e97b6	-4.925552e-05
1	0x3cb91301	0.02259207
2	0xbd1373fb	-0.03599928
3	0xbd002326	-0.03128352
4	0xbc83f18d	-0.016106391
5	0x3c564364	0.013077591
6	0xb93a8c8c	-0.000177907
7	0x3d13a763	0.036048304
8	0xbb7c669e	-0.0038513313
9	0x3c4a30ae	0.012340708
10	0xbc4c9c3e	-0.012488423
11	0xbbff7ba2	-0.0077967206
12	0xbd28c9e3	-0.04120816
13	0xbce93eab	-0.028472265
14	0xbc92a27b	-0.017899742
15	0x3b0235c1	0.0019868466
16	0x3c9241b2	0.017853592
17	0x3cd94dbb	0.026526323
18	0xbce975d2	-0.028498564
19	0xbc96d8be	-0.018413898
20	0x3c899ca2	0.016798321
21	0x3d18487e	0.03717851
22	0xbc075f50	-0.00826247
23	0x3d0a6708	0.033789665
24	0xbbe7982d	-0.0070677013
25	0x3baf62a0	0.005352333
26	0x3d23b435	0.03996678
27	0xbd24102f	-0.040054496
28	0xbcda8113	-0.026672876
29	0xbc2b1997	-0.010443113
30	0xbc86692f	-0.016407577
31	0x3d1e293f	0.038613554
32	0xbce72a70	-0.028218478
33	0xbca0c6b7	-0.019626005
34	0xbcf41052	-0.029792938
35	0xbd26185f	-0.040550586
36	0xbcd3d3c9	-0.025857823
37	0x3d1ed8f1	0.03878111
38	0x3ca3e119	0.020004796
39	0x3cb7c83b	0.022434345
40	0x3b0ae22f	0.0021191945
41	0xbcb18481	-0.021669628
42	0x3c068f10	0.00821282
43	0xbd2b6bbd	-0.041850794
44	0xbcfbead0	-0.030751616
45	0xbcb523d7	-0.022111816
46	0x3cec17df	0.028819976
47	0x3cd9f852	0.026607666
48	0xbc96b1d3	-0.01839534
49	0xbac69607	-0.0015150913
50	0x3ce62e18	0.028098151
51	0x3d3560c8	0.04428175
52	0x3c978416	0.0184956
53	0x3bdc5d30	0.006724976
54	0x3cf80ddd	0.030280048
55	0xbcdd3c0d	-0.027006174
56	0x3c107822	0.008817704
57	0xbd0ade4d	-0.03390341
58	0xbcf554a5	-0.029947588
59	0xbcb3dfd0	-0.021957308
60	0x3ca8d327	0.020608498
61	0x3c972f4f	0.018455176
62	0xbcd153dc	-0.025552683
63	0x3c70b9ea	0.014692763
64	0x3cc9501d	0.024574334
65	0xbb9402c9	-0.0045169336
66	0x3b2eb318	0.002665704
67	0x3c3b8977	0.011446348
68	0x3ce2c7ad	0.027683103
69	0x3d2fa197	0.042878713
70	0xbd09015b	-0.03344856
71	0xbc737735	-0.014859964
72	0x3c940157	0.018067045
73	0x3d16bb86	0.03679993
74	0x3d207636	0.039175235
75	0x3d2228ca	0.03958968
76	0x3c193193	0.009350198
77	0xbd1cbed4	-0.038267925
78	0x3b95012e	0.00454726
79	0xbcdead05	-0.027182112
80	0xbd236fb0	-0.039901435
81	0x3d24365f	0.040090915
82	0x3d0ad9d9	0.033899162
83	0xbd31593b	-0.043297987
84	0x3c121fab	0.008918683
85	0xbbfa273d	-0.007634072
86	0xbbd8113e	-0.0065938523
87	0xbc9e4528	-0.019320086
88	0x3c8c461f	0.01712328
89	0xbccec554	-0.025240578
90	0x3c8a5a7c	0.01688885
91	0x3cbe422b	0.02322491
92	0x3d02886b	0.03186838
93	0x3c86078b	0.016361019
94	0xbd2e4e75	-0.04255529
95	0xbce2caba	-0.027684558
96	0x3cb82d59	0.022482561
97	0x3c25aa42	0.010111393
98	0xbd0c0fa2	-0.034194596
99	0xbcccb14c	-0.024986885
100	0x3d2ba6cf	0.041907128
101	0x3cff598b	0.031170627
102	0xbc946b3d	-0.018117541
103	0xbc28ef27	-0.010310925
104	0xbd26fea5	-0.04077019
105	0xb8cc65d8	-9.746448e-05
106	0xbd04968f	-0.032370146
107	0xbd0f00cf	-0.03491288
108	0xbb46bbca	-0.0030324333
109	0x3bec8419	0.0072178957
110	0xbc8f9a6b	-0.017529687
111	0x3cd99134	0.026558496
112	0xbcd48293	-0.025941169
113	0x3d27d0b2	0.04097051
114	0x3cfec8fa	0.031101692
115	0xbd13ccec	-0.0360841
116	0xbc22f749	-0.009946653
117	0x3b3c5f53	0.002874334
118	0x3bf14ef7	0.0073641497
119	0x3c353710	0.011060491
120	0x3c8aeb4d	0.016957903
121	0x3b45e72a	0.00301976
122	0xbcb30bf7	-0.021856291
123	0x3cb0dbe7	0.021589233
124	0xbd291b00	-0.041285515
125	0xbcd06d45	-0.025442729
126	0xbc32079f	-0.010866075
127	0xbcabd08d	-0.020973468
128	0xbc6916ad	-0.014226598
129	0xbd0f4e39	-0.03498671
130	0xbc10011d	-0.008789328
131	0x3c2a0119	0.010376238
132	0xbce5810b	-0.028015634
133	0xbaf27220	-0.0018497147
134	0x3d03afbf	0.032150026
135	0xbb7c7e63	-0.003852748
136	0x3ae8bac2	0.0017755853
137	0xbb8dc0ef	-0.004325978
138	0x3c26df0a	0.010185013
139	0x3ceba3b2	0.02876458
140	0x3d2f8aae	0.042856865
141	0x3ce608d1	0.028080376
142	0x3d2d0948	0.04224518
143	0xbb13771a	-0.002250141
144	0xbd1f12c4	-0.038836256
145	0xbca4de73	-0.020125603
146	0x3d00d07f	0.031448837
147	0x39e1f092	0.00043094583
148	0xbcacadac	-0.021078907
149	0xbd07b2b8	-0.033129424
150	0xbd243f08	-0.040099174
151	0xbd1502f6	-0.036379777
152	0xbc0a7e45	-0.008452957
153	0x3cc09a65	0.023511121
154	0x3cc91a82	0.024548773
155	0xbd27f203	-0.041002285
156	0x3cec3eb6	0.028838497
157	0xbd0bb7e0	-0.034110904
158	0xbc0d1e13	-0.008613127
159	0xbc8c385d	-0.01711672
160	0xbbfc7cf1	-0.007705324
161	0xbbfc4f9a	-0.007699919
162	0xbd20e977	-0.03928515
163	0xbd195347	-0.037432935
164	0xbbdd127f	-0.0067465897
165	0x39a1102b	0.0003072036
166	0xbca43c54	-0.020048298
167	0x3c8fc4f6	0.017549973
168	0xbd1dcee0	-0.03852737
169	0xbb141f44	-0.0022601644
170	0x3d2276fb	0.03966425
171	0xbc95f474	-0.01830504
172	0x3d2780d4	0.040894344
173	0x3c7b9c22	0.015357049
174	0xbd232b4c	-0.039836213
175	0x3ce74495	0.028230945
176	0xbb91a14f	-0.0044442783
177	0xbc9abab5	-0.018887857
178	0x3d132eb3	0.035933208
179	0xbd0f8340	-0.03503728
180	0x3bb80396	0.005615662
181	0xbc0792be	-0.008274732
182	0x3d02751f	0.031849977
183	0x3c4bab5f	0.012430995
184	0x3cae04b6	0.02124248
185	0x3c89c0a2	0.016815487
186	0xbc1623e7	-0.009163833
187	0xbc0c5009	-0.008564004
188	0xbd118713	-0.035529207
189	0x3cc15c79	0.023603665
190	0x3d13dfff	0.03610229
191	0x3cff2311	0.03114465
192	0xbcf8097e	-0.030277964
193	0x3b2b8363	0.0026170842
194	0xbcf6f220	-0.030144751
195	0xbcbe2fe7	-0.023216201
196	0xbcc8ecd2	-0.024526987
197	0x3c7fa17f	0.0156024685
198	0xbcd6f4a4	-0.0262397
199	0x38809364	6.130969e-05
200	0x3b1cddab	0.0023935835
201	0x3cf2a183	0.02961803
202	0xbd040e26	-0.032240056
203	0xbcf21602	-0.02955151
204	0xbcca171e	-0.024669226
205	0x3cff7c7c	0.031187288
206	0xbc7be1a7	-0.015373624
207	0x3d19ce0e	0.037550025
208	0x3c8b9174	0.01703713
209	0x3bc0849e	0.005875184
210	0x3980ed89	0.0002459104
211	0xbbfe1d95	-0.0077549913
212	0x3bca1591	0.0061671217
213	0xbc2ab535	-0.01041918
214	0x399f4bc4	0.00030383293
215	0x3bc4c70a	0.0060051726
216	0xbd0ac130	-0.033875644
217	0xbcb91999	-0.022595214
218	0x3d145f78	0.03622386
219	0xbd144f10	-0.036208212
220	0xbb126c3a	-0.002234234
221	0x3d35a784	0.04434921
222	0x3c880783	0.016605144
223	0x3b030d03	0.001999677
224	0xbd192d8d	-0.037396956
225	0x3cb60f5f	0.022224126
226	0xbcfa3083	-0.03054071
227	0xbc430e7c	-0.011905309
228	0xbc664910	-0.014055505
229	0xbbc20dde	-0.0059220633
230	0x3a8c51c4	0.001070552
231	0x3d1736e9	0.0369176
232	0x3bc50fc5	0.0060138428
233	0x3d262716	0.04056462
234	0x3ce3c57a	0.027804125
235	0xbcdbeda0	-0.026846707
236	0x3ca20937	0.019779785
237	0xbcfbf148	-0.0307547
238	0xbc94aeee	-0.01814982
239	0x3c5d2118	0.01349666
240	0x3c6766f1	0.014123664
241	0x3d0b3997	0.03399047
242	0xbc5cc837	-0.013475469
243	0x3a929f60	0.0011186413
244	0x3cc18021	0.023620667
245	0xbd2d3011	-0.042282168
246	0x3d0487ab	0.032355946
247	0xbd16a44d	-0.036777783
248	0x3b147e4e	0.0022658291
249	0xbbdbdabe	-0.0067094257
250	0xbcb71a28	-0.02235134
251	0x3bd1b7a7	0.006400067
252	0x3d168cf5	0.03675552
253	0xbc44d888	-0.012014516
254	0xbcd26dea	-0.025687177
255	0xbc7fa634	-0.015603591
