models/model.pt (torch_old, 10722 bytes, 1 tensors)

weight f4 [5, 515]
0.00071050716 0.023134584 -0.03673801 -0.032469895 -0.017043075 0.011839733 -0.0009494352 0.03490108
-0.0042409045 0.011522779 -0.0134073775 -0.008601033 -0.040951364 -0.029403321 -0.018115113 0.0016674445
0.01845921 0.027201967 -0.028111482 -0.019210365 0.015975371 0.037588775 -0.007421223 0.032960333
-0.00743259 0.0045661954 0.040885672 -0.04096288 -0.02658264 -0.011282795 -0.017269682 0.03790222
-0.028958125 -0.019746754 -0.03083489 -0.04140269 -0.026328782 0.037784018 0.019324843 0.022885773
0.0021738973 -0.022676712 0.007358866 -0.04218661 -0.031876903 -0.022952778 0.027753042 0.025798397
-0.019522196 -0.0010670191 0.027307224 0.043778747 0.017503303 0.007062885 0.029514633 -0.02586356
0.008052506 -0.032698326 -0.030726356 -0.022857545 0.021430334 0.017809378 -0.024714759 0.013743875
0.024086133 -0.0055576563 0.0016745648 0.010229756 0.028934283 0.04343111 -0.032810036 -0.01548388
0.017299589 0.037896436 0.038999736 0.038786303 0.008727699 -0.03892676 0.003924263 -0.026530698
-0.041038856 0.039349508 0.03384058 -0.043958843 0.008458282 -0.0072014336 -0.0073554367 -0.020249698
0.016651222 -0.025533663 0.016978396 0.02228061 0.031175585 0.017026845 -0.04204298 -0.028637787
0.023338798 0.009196587 -0.034734994 -0.025632897 0.042587932 0.029689122 -0.019277133 -0.011135036
-0.04206961 -0.00075168686 -0.03307392 -0.034265824 -0.0034072844 0.0064861947 -0.018165713 0.026499147
-0.026898677 0.04001222 0.03011801 -0.03704075 -0.010749829 0.0019515803 0.006402821 0.010324506
0.017553203 0.0036658584 -0.022218449 0.020875206 -0.042331953 -0.0262197 -0.011315285 -0.02164349
-0.015418104 -0.036118995 -0.009540789 0.009496783 -0.028834809 -0.0010950435 0.031454995 -0.0045743864
0.001254926 -0.0036392517 0.010288107 0.027879791 0.04175639 0.028855303 0.041648116 -0.0032578164
-0.039729264 -0.020915583 0.030432584 -0.00033589912 -0.02198793 -0.033878908 -0.041234683 -0.037271846
-0.008983468 0.024264943 0.023721252 -0.040799253 0.028312255 -0.0347268 -0.009282328 -0.017986251
-0.007370203 -0.0086987745 -0.038593136 -0.03654702 -0.0072652386 0.0013654692 -0.02020792 0.016539149
-0.039701167 -0.003008597 0.039623253 -0.018548569 0.039747808 0.01487727 -0.039294634 0.027641742
-0.0052203187 -0.018781658 0.035133373 -0.035659313 0.006315343 -0.009286264 0.031186348 0.012793277
0.021537768 0.015640918 -0.010376806 -0.009396071 -0.03642123 0.022903696 0.034983043 0.03010428
-0.029775998 0.0035114808 -0.031145005 -0.024065867 -0.025706068 0.015094245 -0.026742106 -0.0010223537
0.0016534303 0.028505646 -0.033364736 -0.030151231 -0.024217263 0.030562557 -0.016051982 0.038263068
0.01589031 0.006788147 0.0011918341 -0.008776095 0.0054114936 -0.010869907 -0.00040781967 0.0055145407
-0.03464369 -0.023247967 0.03555519 -0.03563589 -0.003222229 0.043529436 0.01585791 0.0011647749
-0.038278818 0.023118597 -0.031468514 -0.012215795 -0.014724182 -0.0049269567 0.00034311024 0.03654092
0.007084115 0.039580606 0.02691575 -0.027867172 0.019353025 -0.03071191 -0.01770816 0.012811416
0.01479319 0.033003163 -0.014256443 0.000103235434 0.024089837 -0.042844824 0.03335175 -0.035884086
0.00061204314 -0.0074795345 -0.023149798 0.0056287223 0.03606714 -0.012968821 -0.02610645 -0.016358014
00000000: 5441 3a3a bd84 bd3c 987a 16bd 27ff 04bd
00000010: eb9d 8bbc 71fb 413c 85e3 78ba 6ff4 0e3d
00000020: 49f7 8abb 0aca 3c3c 9eaa 5bbc 59eb 0cbc
00000030: 9ebc 27bd 3cdf f0bc 2566 94bc 278e da3a
00000040: c537 973c a9d6 de3c 0d4a e6bc 0e5f 9dbc
00000050: c8de 823c b0f6 193d bb2d f3bb 6a01 073d
00000060: 158d f3bb 06a0 953b bc77 273d b1c8 27bd
00000070: d6c3 d9bc 79db 38bc 2679 8dbc 5c3f 1b3d
00000080: 9739 edbc f2c3 a1bc 7499 fcbc de95 29bd
00000090: 75af d7bc 6ac3 1a3d 224f 9e3c f27a bb3c
000000a0: f277 0e3b 83c4 b9bc a422 f13b decb 2cbd
000000b0: 5b91 02bd 7707 bcbc 595a e33c 2957 d33c
000000c0: 03ed 9fbc 38db 8bba 66b3 df3c 5851 333d
000000d0: 1663 8f3c c66f e73b acc8 f13c d1df d3bc
000000e0: a8ee 033c aeee 05bd d7b5 fbbc bf3f bbbc
000000f0: ab8e af3c f9e4 913c 9b76 cabc fd2d 613c
00000100: 4850 c53c 001d b6bb 127d db3a b59a 273c
00000110: 9707 ed3c d2e4 313d d163 06bd 1ab0 7dbc
00000120: deb7 8d3c 4b39 1b3d 30be 1f3d 63de 1e3d
00000130: 9ffe 0e3c ab71 1fbd 1b97 803b e856 d9bc
00000140: 5c18 28bd f32c 213d 6c9c 0a3d 300e 34bd
00000150: 9b94 0a3c 01fa ebbb e005 f1bb b2e2 a5bc
00000160: 2568 883c f92b d1bc 4716 8b3c d385 b63c
00000170: f163 ff3c e27b 8b3c 4335 2cbd cb99 eabc
00000180: 0231 bf3c 48ad 163c 4846 0ebd 15fc d1bc
00000190: af70 2e3d 9a36 f33c 14eb 9dbc ba6f 36bc
000001a0: 2f51 2cbd da0c 45ba 8578 07bd 525a 0cbd
000001b0: bf4c 5fbb 258a d43b 43d0 94bc bd14 d93c
000001c0: 9d5a dcbc dbe3 233d 0bba f63c 0bb8 17bd
000001d0: 0d20 30bc 2bcc ff3a c1ce d13b 1e28 293c
000001e0: bccb 8f3c e63e 703b 7703 b6bc 7b02 ab3c
000001f0: 4564 2dbd b2ca d6bc bf63 39bc b04d b1bc
00000200: 379c 7cbc 83f1 13bd f850 1cbc 6598 1b3c
00000210: fa36 ecbc 9087 8fba f4d6 003d bce4 95bb
00000220: 547c a43a 8380 6ebb 738f 283c 2964 e43c
00000230: c008 2b3d f561 ec3c 3797 2a3d 1781 55bb
00000240: 27bb 22bd 2857 abbc c14d f93c 9e1b b0b9
00000250: 0820 b4bc 9cc4 0abd b3e5 28bd 5daa 18bd
00000260: 652f 13bc 46c7 c63c 1253 c23c 1e1d 27bd
00000270: 1aef e73c b03d 0ebd e814 18bc e757 93bc
00000280: be81 f1bb 4e85 0ebc d613 1ebd 54b2 15bd
00000290: 3d11 eebb 8bf9 b23a 148b a5bc 1c7d 873c
000002a0: b19d 22bd e22b 45bb fe4b 223d 2bf3 97bc
000002b0: 99ce 223d cbbf 733c 69f3 20bd ef70 e23c
000002c0: 350f abbb fedb 99bc 03e8 0f3d 800f 12bd
000002d0: f0f0 ce3b 6a25 18bc 837a ff3c e59a 513c
000002e0: f96f b03c 6221 803c 7b03 2abc faf1 19bc
000002f0: 6d2e 15bd 88a0 bb3c 614a 0f3d 409d f63c
00000300: cbec f3bc df20 663b cf23 ffbc c825 c5bc
00000310: 8895 d2bc da4d 773c 4312 dbbc 7f00 86ba
00000320: eab7 d83a ac84 e93c 76a9 08bd b7ff f6bc
00000330: 4863 c6bc 545e fa3c 727f 83bc bcb9 1c3d
00000340: 652c 823c 1b6f de3b 5137 9c3a 9cc9 0fbc
00000350: e652 b13b b217 32bc a1d0 d5b9 52b3 b43b
00000360: 8be6 0dbd 8572 bebc 52a2 113d f0f6 11bd
00000370: 082c 53bb ec4b 323d 73e8 813c 5cab 983a
00000380: 40ca 1cbd 3663 bd3c 21e5 00bd c224 48bc
00000390: b23d 71bc 4f72 a1bb 7ae3 b339 efab 153d
000003a0: dd21 e83b 461f 223d 6b7e dc3c b249 e4bc
000003b0: 3c8a 9e3c 8b97 fbbc b410 91bc f9e6 513c
000003c0: 235f 723c 532e 073d db93 69bc 1a80 d838
000003d0: 0d58 c53c 0e7e 2fbd d89b 083d 31fb 12bd
000003e0: 8571 203a e216 f5bb a5a4 bdbc 2571 b83b
000003f0: 23bb 133d 2e7b 54bc 32dd d5bc 3e01 86bc
