models/policy_weights.npy (npy, 8368 bytes, 1 tensors)

array f4 [515, 4]
0	0xbc5e2513	-0.013558644
1	0x3bf9415d	0.007606669
2	0x3d2e13b8	0.042499274
3	0x3d33c48f	0.043888625
4	0x3d02520d	0.03181653
5	0xbce43a0a	-0.027859706
6	0x3bc88edc	0.006120546
7	0xba61b7fc	-0.00086104847
8	0xbd0d257d	-0.03445958
9	0xbacf6036	-0.001582152
10	0x3a81955a	0.0009886429
11	0xbcd0de40	-0.025496602
12	0xbd2c13ed	-0.04201119
13	0x3ce311dd	0.027718479
14	0x3c4b1f64	0.012397621
15	0xbcb4c09c	-0.0220645
16	0xbd0708f9	-0.03296754
17	0xbb2a37d9	-0.002597323
18	0x3b875d9c	0.004131032
19	0x3cdb8491	0.026796611
20	0x3be4494c	0.0069667455
21	0x3ce8d1b0	0.0284203
22	0x3c811c73	0.015760636
23	0xbd1c95da	-0.038228847
24	0x3c21dc4d	0.009879184
25	0xbc4676d6	-0.012113294
26	0xbcadf8c0	-0.021236777
27	0x3bab23ea	0.005222787
28	0x3cd25027	0.025672985
29	0x3c56ff62	0.013122411
30	0xbc8c1104	-0.017097957
31	0x3d5f8f8f	0.054580268
32	0xbcb90bc0	-0.02258861
33	0xbd249c41	-0.040188078
34	0xbca7aab2	-0.020467136
35	0x3c9202e6	0.017823648
36	0x3c7990da	0.015232289
37	0xbcbd1876	-0.023082953
38	0x3b348440	0.0027544647
39	0xbae2481b	-0.0017263921
40	0xbb11792a	-0.0022197464
41	0xbc9cc061	-0.019134702
42	0xbc8b8fe5	-0.017036388
43	0x3c6e821f	0.0145573905
44	0xbbaf9704	-0.0053585786
45	0x3d436b9c	0.047710046
46	0x3d31a50f	0.043370303
47	0xbccb5c66	-0.024824332
48	0xbd11cdda	-0.035596706
49	0xbb5a4308	-0.0033304114
50	0xbc349276	-0.011021247
51	0xbce4a6f8	-0.027911648
52	0xbd052418	-0.032505125
53	0xba861900	-0.0010230839
54	0xbc1714d6	-0.009221276
55	0xbd364fbf	-0.044509646
56	0xbca58607	-0.02020551
57	0xbc6b7e48	-0.0143733695
58	0x3ca161ba	0.01969992
59	0xbd197916	-0.037468992
60	0x3c00cd6b	0.007861475
61	0x3d301504	0.042988792
62	0x3c6c1494	0.014409203
63	0x3ca5bbe9	0.020231204
64	0x3cfc08b5	0.03076587
65	0x3d3fedcd	0.046857644
66	0x3d03a719	0.03214178
67	0x3b87f2b0	0.0041488037
68	0x3d1c968e	0.038229518
69	0xbd0fb955	-0.035088856
70	0x3ceb4230	0.028718084
71	0xbcabd335	-0.020974735
72	0xbc344837	-0.0110035455
73	0xbd2294ef	-0.039692815
74	0xbd4942d3	-0.049135994
75	0xbd506c2d	-0.050884414
76	0xbcacf9a2	-0.021115128
77	0xbd2c6f9d	-0.04209863
78	0x3cc16449	0.02360739
79	0x3cf6eda4	0.030142613
80	0x3c0b4575	0.008500447
81	0xbb131e9e	-0.002244867
82	0xbc41b32a	-0.011822501
83	0xbcc4bf3d	-0.02401697
84	0x3cf3fafa	0.02978276
85	0xbc95327f	-0.018212555
86	0xbca425bf	-0.02003753
87	0xbc803624	-0.015650816
88	0xbc9419d6	-0.018078726
89	0xbccc17f2	-0.024913762
90	0x3cdccb9b	0.026952555
91	0xbd26579b	-0.04061089
92	0x3d10a7b9	0.035316203
93	0xbc1cdaa0	-0.009573609
94	0x3d1bc71a	0.038031675
95	0xbba40fbe	-0.0050067594
96	0xbc836265	-0.01603813
97	0x3c3bb561	0.011456818
98	0xbd003ca1	-0.03130782
99	0x3c36bf54	0.011154015
100	0x3ae6ba0c	0.0017603054
101	0xbca59650	-0.020213276
102	0xbc76682c	-0.015039485
103	0xbd3a62c3	-0.045504343
104	0x3d4007c4	0.046882406
105	0x3c3b5c7e	0.011435626
106	0x3cb24c5c	0.021764927
107	0xbcc74f3b	-0.024329772
108	0xbd3ac44a	-0.045597352
109	0xbc9c4186	-0.019074213
110	0x3c9234d5	0.017847458
111	0x3cd4f72d	0.025996769
112	0xbd0320e5	-0.032013793
113	0xbccfe7c6	-0.025379073
114	0x3d41e629	0.04733864
115	0xb97d47e0	-0.00024154736
116	0xbcb7699b	-0.022389224
117	0x3cdba2f2	0.026811097
118	0xbc7eff35	-0.015563776
119	0xbca53885	-0.020168552
120	0xbc6c84c3	-0.01443595
121	0x3cd15263	0.02555198
122	0xbd2de58a	-0.042455234
123	0xbc96e07d	-0.018417591
124	0x3d14ecd5	0.036358673
125	0xbd1f0c6a	-0.0388302
126	0x3d2e4b9f	0.042552587
127	0x3c93d95c	0.018047981
128	0xbd06b384	-0.032886043
129	0x3b884070	0.004158072
130	0x3cc2134c	0.023690842
131	0xbd493ea4	-0.049132004
132	0x3aecf150	0.0018077288
133	0xba972def	-0.0011534075
134	0x3d2d4b4b	0.042308133
135	0xbab1a7c6	-0.0013554029
136	0xbd2c00f2	-0.04199309
137	0x3d33f7ae	0.043937378
138	0xbce88b0c	-0.028386615
139	0x3cbfdb05	0.023419866
140	0xbd026a13	-0.03183944
141	0xbd0b20f7	-0.033966985
142	0xbd0fc6c4	-0.035101667
143	0xba8bdd68	-0.0010670843
144	0xbd0a3bed	-0.033748556
145	0xbd19b0da	-0.037522174
146	0xbc411902	-0.0117857475
147	0x3ca1067e	0.019656416
148	0x3d0bdda5	0.034146924
149	0x3d1a40f7	0.03765961
150	0xbd2e97fa	-0.042625405
151	0xbcf4d270	-0.0298855
152	0x3cc77908	0.024349704
153	0xbcf4033b	-0.029786697
154	0x3cba7f3d	0.02276575
155	0x3c97d54b	0.018534323
156	0x3ce2be41	0.02767861
157	0x3ce8fcbc	0.028440826
158	0x3d050fbb	0.032485705
159	0x3cd9a0ec	0.026565991
160	0x3ada2556	0.0016643207
161	0xbb4ac6c4	-0.0030941227
162	0x3c624a30	0.013811633
163	0xbc5e780c	-0.013578426
164	0xbd24f9e9	-0.040277395
165	0xbcd9935b	-0.026559522
166	0xbb9b6d32	-0.0047432417
167	0xbd024eff	-0.031813618
168	0x3c513879	0.012769812
169	0xbc8539e7	-0.016262962
170	0x3d05043a	0.032474734
171	0x3bfdc7c5	0.0077447616
172	0xbd556473	-0.05209775
173	0x3cf19257	0.029488726
174	0xbd25a8a4	-0.04044403
175	0x3d036164	0.0320753
176	0xbd28f43c	-0.041248545
177	0xbc178967	-0.009249068
178	0x3d5d2c82	0.053997524
179	0x3b191548	0.0023358632
180	0xbc8ea02c	-0.01741036
181	0xbd581fa0	-0.052764535
182	0xbd6af6e3	-0.057364356
183	0x3cb4c570	0.022066802
184	0x3cb19430	0.021677107
185	0xbd1547f6	-0.03644558
186	0xbd2ad3cd	-0.041705895
187	0x3ccf1594	0.025278844
188	0x3cf29774	0.029613234
189	0xbcbbf479	-0.022943722
190	0xbc33326d	-0.010937315
191	0xbc53e294	-0.012932438
192	0xbc562a97	-0.013071678
193	0x3cd8e22c	0.026475035
194	0x3d3d70e2	0.04625023
195	0xbc2f08a2	-0.010683211
196	0xbb6a4320	-0.0035745576
197	0xbce1ef62	-0.027579967
198	0x3bc7f3a9	0.0061020446
199	0x3d2fa3d8	0.042880863
200	0x3c9ad7d6	0.018901747
201	0x3d3c6c63	0.046001803
202	0x3d152329	0.036410484
203	0x3ab29c9a	0.0013626993
204	0x3d1f857a	0.038945653
205	0xbbb163a2	-0.0054134885
206	0xbd1dfa35	-0.038568694
207	0xbd2310db	-0.039810997
208	0x3c9e6efe	0.019340035
209	0xbbbe939e	-0.005815937
210	0x3c91c563	0.017794317
211	0xbc9ea877	-0.01936744
212	0xbade9d42	-0.0016984122
213	0x3cdb619f	0.026779948
214	0xbbf8819a	-0.007583809
215	0x3cf55c58	0.02995126
216	0x3c85a33b	0.016313186
217	0xb9b53528	-0.00034562615
218	0x3c724786	0.01478756
219	0xbc981026	-0.018562388
220	0xbc469eef	-0.012122854
221	0x3d24ec4c	0.040264413
222	0x3cc53a91	0.024075778
223	0xbd0d10ff	-0.034440037
224	0xbb9034aa	-0.0044008093
225	0x3be935a2	0.007116989
226	0x3c55b9b7	0.013044766
227	0x3d0b80fc	0.034058556
228	0xbd017bc7	-0.031612184
229	0xbc76e69d	-0.015069631
230	0xbb93c9bc	-0.0045101326
231	0x3d301999	0.04299316
232	0xbd3c80c5	-0.04602124
233	0xbca1c8cb	-0.019749066
234	0xbc2677e0	-0.010160416
235	0xbc57bc34	-0.01316743
236	0xbcd17271	-0.025567265
237	0x3b58e8f5	0.0033097838
238	0xbcf4d14f	-0.029884962
239	0xba8cff67	-0.0010757268
240	0x3cf2e701	0.029651167
241	0x3d128785	0.035773773
242	0xbc3010ee	-0.010746224
243	0x3be907c4	0.0071115214
244	0x3c602a6a	0.013681987
245	0xbc3aa6d9	-0.011392319
246	0x3caecae7	0.021336986
247	0x3c471fec	0.012153607
248	0xbc16268b	-0.009164463
249	0xbd51f34e	-0.051257424
250	0xbbfaacc1	-0.0076499884
251	0x3c174eab	0.0092350645
252	0x3c3e387b	0.011610146
253	0x3cbe02bf	0.023194669
254	0x3d2f005a	0.042724945
255	0xbcd7e9ad	-0.026356542
