models/policy_weights.npy (npy, 8368 bytes, 1 tensors)

array f4 [515, 4]
00000000: 2854 8bbc caa7 163b 18fe d23c 1fa0 3d3d
00000010: 0bb9 f83c 0cd6 c0bc cdec 083d 988c 6ebb
00000020: c6fb edbc 8e4c 61bc b61d b5ba aaf1 c8bc
00000030: e8d1 0cbd eb4c 443c fc7d aa3c b5f2 22bd
00000040: 95a7 3bbd e204 193c 9444 4eba 554d 403b
00000050: 505b 3f3a 62ac ae3c 76b1 803c 70ea 09bd
00000060: 9e2a 9abb 04e4 cdbb 1ad8 c6bc 7c12 c0bb
00000070: 0e80 a83c 525f 943b 8a54 febc 7b09 7b3d
00000080: fb09 19bd 8855 7abd f355 c5bc 77ec 103c
00000090: fca8 413c de0c a2bc 52e7 ebbb 6658 23bb
000000a0: 9ce3 10bb e72a 04bd fe43 49bc 76f4 733c
000000b0: 13ee 19bc fb1b 363d 3476 383d bc32 fbbc
000000c0: 5fb6 bbbc cdc0 39bc 0ec2 20bd b44e fcbc
000000d0: 332c 48bd ca65 b23b faa3 023b 93a3 33bd
000000e0: a0d9 eabc ed19 b8bc 1d10 303d d189 3ebd
000000f0: 6ade 63ba 2daf 163d e355 e53b 88c0 c43c
00000100: 0ec5 b03c 422e 4f3d 6fd6 f93c 22b2 143c
00000110: 2542 163d fe1b 2fbd 82c7 ac3c 9e6b b5bc
00000120: e6db 2fbc e367 e0bc 63f7 29bd 3618 27bd
00000130: a117 96bc 1e8c 39bd 1a19 133d 5a15 473d
00000140: e626 6a3c 38af 75bb be06 95bc 858d b4bc
00000150: 9625 173d 33bf 05bd fa54 d8bb 5b38 a5bc
00000160: 455b 8ebb 7860 8bbc bfb7 e73c 6f61 f1bc
00000170: bae9 5e3d a8e3 1cbc 2810 353d a6d3 2d3c
00000180: b3ac cfbc 359d 133c df6a b2bc 834c bb3c
00000190: 436c b63c 2f4b 56bc 44c4 f5bc 270f 49bd
000001a0: b777 273d c3d7 6a3c 7008 b83c f77c 06bd
000001b0: 38cd 43bd 6058 d9bb d433 943c 12f0 933c
000001c0: b30e e5bc e9a6 5fbc 6521 4e3d d42e 28bc
000001d0: 185f 00bc 1882 fa3c 4268 e4bc f50c a8bc
000001e0: e732 17bb 08d6 b43c e219 52bd 4baa b5bc
000001f0: 339c 373c 4aff 27bd b632 8c3d a01e 783c
00000200: 20ef fbbc e636 a93c b518 dc3c 9a90 d9bc
00000210: 418c fe3b 4ab8 1dbb 1be1 2d3d f668 4a3a
00000220: eeb4 4abd d69f 533d 2c0c ebbc ce0c 433c
00000230: 991a 20bd 69fb a8bc 62bd 25bd 7165 03bc
00000240: 0a35 11bd d066 18bd 2203 35bc 7229 bc3c
00000250: 4457 063d 346c 173d d184 43bd f2cc 0bbd
00000260: b89d 0d3d 3df3 66bc 4492 ab3c ddeb c03b
00000270: 1c9d 2f3d 1005 263d 6615 db3c 4249 b93b
00000280: 2c97 2cbb a3fd 07bb cea7 3d3c 6912 8fbc
00000290: 7fad 62bd b873 2cbd 2ac6 b1bc 6623 03bd
000002a0: b178 c23b 5ce3 f1bc 9548 a43c 4c65 ac3c
000002b0: d260 24bd c46f f53c d151 41bd 73e5 103d
000002c0: 9a4f 1dbd eca9 21ba 6023 903d 467d 23bc
000002d0: d7a2 8abc 625f 50bd 2c7c 81bd 31bf 223d
000002e0: 7e4b 083d 1820 0ebd 057f 3bbd 6662 a83c
000002f0: 22f1 d83c a26d 84bc 4a73 abbc ebe6 a73b
00000300: 88af 67bc 089d 0e3d d5e8 1b3d bebe 95bc
00000310: 9053 a8bb c8a3 0ebd 09c9 1b3c 0217 1b3d
00000320: 5c37 383c 01f6 fc3c 7819 cf3c 5369 c0bb
00000330: 3dd8 e13c cf43 9f3c 9c71 5abd be5c 6abd
00000340: cd9a bc3c d0fc 87bc c423 cc3c f221 f6bc
00000350: 5b06 9c3b f9e6 c03c 9ef7 90bb 9ee5 133d
00000360: 6b1f 943b 2002 523b d263 4a39 7c36 47bc
00000370: f78b c6bc f7d2 643d d5fd a43c dead 08bd
00000380: cb9f 81bc b2e3 f83b 25f8 063c d045 243d
00000390: 6b45 53bd e296 7abc ef79 09bc 24fc 243d
000003a0: e3f0 60bd a0e7 93bc 00a5 bbb7 f1f0 f8bb
000003b0: 6e70 1fbc c819 bf3b d4f7 29bd 3aad c03c
000003c0: ca87 023d 519f 4b3d f277 39bc 51b0 fa3b
000003d0: 68a9 573c 35f5 083b 65c0 c63c f429 203c
000003e0: 3196 87bb ed15 3bbd 4356 31bc bf50 ac3c
000003f0: f777 e63c ae13 943c c2ee 443d 9deb b0bc
-0.017007902 0.0022988194 0.025755927 0.04629528 0.030361673 -0.023539566 0.033428956 -0.0036399718
-0.029050719 -0.013751162 -0.0013818059 -0.024529297 -0.03437987 0.011981229 0.020812027 -0.039782245
-0.045814116 0.009339543 -0.00078684953 0.0029342968 0.00072996784 0.021322433 0.01570962 -0.033670843
-0.0047047874 -0.006283285 -0.024272967 -0.0058615785 0.020568874 0.0045279646 -0.03104617 0.06128834
-0.037363034 -0.061116725 -0.024088835 0.00884544 0.011820074 -0.019781526 -0.0071992064 -0.0024924516
-0.0022108322 -0.032267477 -0.012284277 0.014889827 -0.00939514 0.044460278 0.045034602 -0.03066384
-0.02291411 -0.011337471 -0.039247565 -0.030799247 -0.048870277 0.005444263 0.0019934163 -0.04385717
-0.028668225 -0.0224733 0.042984117 -0.04651815 -0.0008692505 0.036788154 0.006998764 0.024017587
0.021578338 0.050581224 0.030497758 0.009075673 0.036684174 -0.042751305 0.021091226 -0.022146042
-0.01073358 -0.027393287 -0.041495692 -0.040794574 -0.018321814 -0.04529964 0.03591261 0.048604347
0.014291501 -0.0037488472 -0.018191691 -0.022040138 0.03690108 -0.032653045 -0.006601927 -0.020168474
-0.0043443763 -0.017013773 0.02828586 -0.029465405 0.054422118 -0.009575762 0.04420486 0.010609543
-0.025350904 0.009009649 -0.021779476 0.022863632 0.02226842 -0.013079449 -0.030000813 -0.049086716
0.040885653 0.014333668 0.02246496 -0.03283402 -0.047803134 -0.0066328496 0.01809112 0.01805881
-0.02796111 -0.013650634 0.050324816 -0.010265071 -0.007835172 0.030579612 -0.027881745 -0.02051399
-0.0023071112 0.022074714 -0.051294215 -0.022175929 0.011206674 -0.041014947 0.0684561 0.01514402
-0.030753672 0.02065606 0.02686725 -0.02655821 0.0077681844 -0.0024066144 0.042451005 0.0007721329
-0.049488954 0.051666103 -0.028692327 0.011904908 -0.039087866 -0.020627694 -0.040463813 -0.008019791
-0.035450973 -0.037207425 -0.01104811 0.022968981 0.032798067 0.036968425 -0.047734085 -0.034130998
0.03457424 -0.014096078 0.020943768 0.005887492 0.04287444 0.04053217 0.026743602 0.005654485
-0.0026335223 -0.0020750544 0.011575652 -0.017464833 -0.05534124 -0.042102545 -0.021700937 -0.03201618
0.0059347977 -0.029527359 0.020054141 0.021044396 -0.040131398 0.02996052 -0.047197167 0.03537507
-0.038405992 -0.0006166983 0.07037997 -0.009978598 -0.016923351 -0.050872214 -0.06322512 0.039733116
0.03327512 -0.034698576 -0.045775432 0.020554733 0.026482169 -0.016165558 -0.020928998 0.005123963
-0.014140971 0.034817725 0.038063843 -0.01827943 -0.0051369146 -0.034824163 0.00950838 0.03786374
0.011243667 0.030879023 0.0252807 -0.0058719306 0.02756893 0.019441513 -0.053331003 -0.057217352
0.023023034 -0.016600043 0.024919398 -0.030045483 0.0047615 0.023547636 -0.0044240495 0.036107652
0.004520347 0.0032044724 0.00019301407 -0.012158986 -0.024236662 0.055865254 0.020140568 -0.033368938
-0.015823266 0.007595503 0.008237873 0.04010564 -0.051579874 -0.015294762 -0.008390888 0.040279523
-0.054917227 -0.018054783 -2.2368971e-05 -0.007597082 -0.009731395 0.005831931 -0.041496113 0.0235201
0.03186778 0.049712483 -0.011320101 0.007650413 0.013162948 0.0020898108 0.024261663 0.009775627
-0.0041377773 -0.045675207 -0.010823789 0.021034596 0.028133376 0.01807579 0.04807926 -0.021596724
