models/policy_weights.npy (npy, 8368 bytes, 1 tensors)

array f4 [515, 4]
-0.018531768 0.00020365138 0.025890023 0.044555396 0.02889225 -0.02654124 0.03291684 -0.0034662834
-0.029422171 -0.014571676 -0.00030862394 -0.02408576 -0.03520193 0.015091608 0.017529337 -0.03895466
-0.04181235 0.0130305365 -0.0045340657 0.0053675165 0.0027470076 0.021652501 0.015172252 -0.027951056
-0.0064790426 -0.009277474 -0.021935979 -0.00049406535 0.024483202 0.007965649 -0.036149282 0.060453724
-0.041764583 -0.05807018 -0.022473698 0.012452745 0.009129761 -0.018308317 -0.007445759 -0.00021605712
-0.00412805 -0.029770449 -0.009726215 0.0139738275 -0.014346696 0.040034205 0.043462027 -0.029456723
-0.024047518 -0.01125256 -0.033616085 -0.02933197 -0.04370509 0.00484662 -0.0047061387 -0.045281403
-0.026434671 -0.022862285 0.045832314 -0.048086893 0.0030894852 0.040218078 0.00843623 0.026574736
0.02882717 0.05125951 0.030503262 0.0058286926 0.029201895 -0.039903518 0.0238666 -0.021041404
-0.010063627 -0.030685617 -0.04013505 -0.042912208 -0.019616986 -0.045167346 0.035011362 0.04496157
0.012487147 -0.0031049221 -0.014559209 -0.02306472 0.040298577 -0.027949614 -0.0063412585 -0.021269424
-0.0050517153 -0.016458917 0.030054253 -0.02571066 0.054354623 -0.0076721977 0.0456334 0.0117310155
-0.024271114 0.007986652 -0.020815782 0.023471288 0.021371935 -0.01094665 -0.024973368 -0.048330553
0.042393897 0.014254932 0.020117128 -0.033185292 -0.049021274 -0.00827357 0.01954424 0.017026972
-0.029455226 -0.0098676365 0.053769805 -0.00864187 -0.00773033 0.035467334 -0.027369848 -0.025287602
-0.00058788527 0.030798906 -0.05062581 -0.019805823 0.01244709 -0.044586007 0.06633477 0.016688444
-0.030136045 0.021585792 0.03004741 -0.026922502 0.009021947 -0.0024988584 0.043550108 0.00050949026
-0.049072035 0.04711439 -0.027521785 0.012067535 -0.039680414 -0.02479681 -0.038967486 -0.0071854014
-0.034162268 -0.035210136 -0.012648079 0.022662517 0.027157824 0.03703561 -0.04551148 -0.031496987
0.029131234 -0.012941852 0.014713626 0.0062326742 0.040186476 0.036280803 0.028031964 0.008723688
-0.003727883 -0.0056080143 0.014175773 -0.016780227 -0.053663116 -0.042224027 -0.019998724 -0.030382339
0.010109484 -0.02687622 0.01992249 0.020077227 -0.04038321 0.029703552 -0.04634154 0.04270729
-0.037716564 -0.0020708144 0.066405885 -0.0062484215 -0.019596612 -0.04785871 -0.06087365 0.035706393
0.02716969 -0.03614103 -0.041283306 0.021131683 0.02080102 -0.016737357 -0.015684571 0.0021990116
-0.0157539 0.038917486 0.042317502 -0.016328352 0.00067214307 -0.033351064 0.010350979 0.034736298
0.016236328 0.030456726 0.025299616 -0.0025573068 0.020214126 0.018604457 -0.05562665 -0.055202432
0.020228649 -0.013485838 0.021193007 -0.02844081 0.0065651257 0.024942797 -0.0040628286 0.032635123
0.008058779 0.004365541 0.003878757 -0.009114666 -0.021627959 0.05493624 0.022188494 -0.035091974
-0.01434179 0.0041092285 0.015628226 0.037890386 -0.046965756 -0.019167114 -0.0059273816 0.03793157
-0.05233837 -0.022874922 0.0018887845 -0.004798406 -0.012130445 0.006131891 -0.044380717 0.023050591
0.027837846 0.052722875 -0.011987692 0.00857632 0.009871828 -0.0011931264 0.018991834 0.01431665
-0.0056543434 -0.04940586 -0.012989197 0.022505067 0.020927848 0.01766456 0.05369446 -0.020037603
00000000: efcf 97bc 408b 5539 5017 d43c b87f 363d
00000010: 71af ec3c 046d d9bc cfd3 063d 962a 63bb
00000020: c406 f1bc 0abe 6ebc cece a1b9 804f c5bc
00000030: e62f 10bd cb42 773c af99 8f3c ec8e 1fbd
00000040: 6d43 2bbd 087e 553c 8092 94bb fee1 af3b
00000050: 2407 343b 9660 b13c 0a95 783c 9df9 e4bc
00000060: 264e d4bb 8c00 18bc 15b3 b3bc 2a84 01ba
00000070: ff90 c83c 5a82 023c 4511 14bd 539e 773d
00000080: 5711 2bbd ffda 6dbd c31a b8bc 9906 4c3c
00000090: fe94 153c 53fb 95bc 8efb f3bb 648d 62b9
000000a0: 9844 87bb 28e1 f3bc b45a 1fbc 7bf2 643c
000000b0: 680e 6bbc e8fa 233d 3d05 323d 3a4f f1bc
000000c0: 4dff c4bc a85c 38bc 05b1 09bd 9949 f0bc
000000d0: 1c04 33bd 65d0 9e3b f435 9abb fe78 39bd
000000e0: 868d d8bc b049 bbbc aaba 3b3d c3f6 44bd
000000f0: f678 4a3b b6bb 243d 1d38 0a3c 43b3 d93c
00000100: f526 ec3c 7ef5 513d fae1 f93c 9efe be3b
00000110: d038 ef3c df71 23bd e383 c33c 065f acbc
00000120: e9e1 24bc 6760 fbbc a664 24bd b6c4 2fbd
00000130: cdb3 a0bc 6501 39bd 1368 0f3d a029 383d
00000140: e496 4c3c f37b 4bbb c089 6ebc 39f2 bcbc
00000150: 1f10 253d 97f6 e4bc 55ca cfbb 373d aebc
00000160: dc88 a5bb dad4 86bc 5634 f63c 299f d2bc
00000170: f4a2 5e3d 0f67 fbbb 17ea 3a3d 7233 403c
00000180: 37d4 c6bc 72da 023c dc85 aabc dc46 c03c
00000190: 3214 af3c 9459 33bc f394 ccbc 42f6 45bd
000001a0: 39a5 2d3d 858d 693c adcc a43c 4ded 07bd
000001b0: 88ca 48bd de8d 07bc 3e1b a03c 267c 8b3c
000001c0: 164c f1bc deab 21bc ba3d 5c3d a196 0dbc
000001d0: b54e fdbb 3246 113d bb36 e0bc f227 cfbc
000001e0: 501c 1aba fd4d fc3c 025d 4fbd d23f a2bc
000001f0: e1ee 4b3c d19f 36bd 86da 873d 34b6 883c
00000200: dedf f6bc b0d4 b03c fc25 f63c 948c dcbc
00000210: cad0 133c e3c3 23bb 9961 323d 508f 053a
00000220: c2ff 48bd 05fb 403d 5e75 e1bc e9b6 453c
00000230: ee87 22bd ae22 cbbc 5f9c 1fbd 8473 ebbb
00000240: bced 0bbd 8138 10bd e339 4fbc bea6 b93c
00000250: 167a de3c a7b2 173d 3f6a 3abd fc02 01bd
00000260: a0a4 ee3c 100a 54bc 6c11 713c 763b cc3b
00000270: 939a 243d 2e9b 143d 4aa3 e53c cded 0e3c
00000280: 804f 74bb 6fc3 b7bb 8041 683c b076 89bc
00000290: dbcd 5bbd 1af3 2cbd 5dd4 a3bc 62e4 f8bc
000002a0: 40a2 253c 852b dcbc 7d34 a33c ff78 a43c
000002b0: dd68 25bd dd54 f33c a0d0 3dbd d7ed 2e3d
000002c0: af7c 1abd 80b6 07bb cfff 873d 8fbf ccbb
000002d0: 1389 a0bc 7f07 44bd a656 79bd de40 123d
000002e0: f892 de3c 9e08 14bd af18 29bd 5a1c ad3c
000002f0: e766 aa3c c81c 89bc ee7c 80bc 4b1d 103b
00000300: 530e 81bc f167 1f3d 1e55 2d3d 09c3 85bc
00000310: c232 303a 209b 08bd 2797 293c a647 0e3d
00000320: 0c02 853c 6280 f93c 2441 cf3c 7d98 27bb
00000330: 1898 a53c 6068 983c c5d8 63bd f21b 62bd
00000340: 8db6 a53c b4f3 5cbc f59c ad3c b4fc e8bc
00000350: 4420 d73b d654 cc3c 7a21 85bb 68ac 053d
00000360: f808 043c d00c 8f3b be32 7e3b ae55 15bc
00000370: 1e2d b1bc d304 613d a5c4 b53c 9abc 0fbd
00000380: d4f9 6abc b5a6 863b c406 803c f332 1b3d
00000390: 2a5f 40bd 5a04 9dbc 7b3a c2bb 225e 1b3d
000003a0: c260 56bd 3064 bbbc 1791 f73a f23b 9dbb
000003b0: c6be 46bc 08ee c83b 8ec8 35bd 98d4 bc3c
000003c0: 320c e43c f1f3 573d 0668 44bc b183 0c3c
000003d0: 73bd 213c ae62 9cba c394 9b3c 6290 6a3c
000003e0: 1248 b9bb cd5d 4abd a4d0 54bc 8c5c b83c
000003f0: e170 ab3c 44b5 903c b9ee 5b3d e625 a4bc
